…
30338/30338 [==============================] - 69s - loss: 0.0148 - val_loss: 0.0650
Epoch 4/5
30338/30338 [==============================] - 73s - loss: 0.0136 - val_loss: 0.0660
Epoch 5/5
30338/30338 [==============================] - 73s - loss: 0.0130 - val_loss: 0.0621
____________________________________________________________________________________________________
Layer (type)                     Output Shape          Param #     Connected to                     
====================================================================================================
lambda_1 (Lambda)                (None, 160, 320, 3)   0           lambda_input_1[0][0]             
____________________________________________________________________________________________________
cropping2d_1 (Cropping2D)        (None, 67, 320, 3)    0           lambda_1[0][0]                   
____________________________________________________________________________________________________
convolution2d_1 (Convolution2D)  (None, 32, 158, 24)   1824        cropping2d_1[0][0]               
____________________________________________________________________________________________________
convolution2d_2 (Convolution2D)  (None, 14, 77, 36)    21636       convolution2d_1[0][0]            
____________________________________________________________________________________________________
convolution2d_3 (Convolution2D)  (None, 5, 37, 48)     43248       convolution2d_2[0][0]            
____________________________________________________________________________________________________
convolution2d_4 (Convolution2D)  (None, 3, 35, 64)     27712       convolution2d_3[0][0]            
____________________________________________________________________________________________________
convolution2d_5 (Convolution2D)  (None, 1, 33, 64)     36928       convolution2d_4[0][0]            
____________________________________________________________________________________________________
flatten_1 (Flatten)              (None, 2112)          0           convolution2d_5[0][0]            
____________________________________________________________________________________________________
dense_1 (Dense)                  (None, 100)           211300      flatten_1[0][0]                  
____________________________________________________________________________________________________
dropout_1 (Dropout)              (None, 100)           0           dense_1[0][0]                    
____________________________________________________________________________________________________
dense_2 (Dense)                  (None, 50)            5050        dropout_1[0][0]                    
____________________________________________________________________________________________________
dense_3 (Dense)                  (None, 10)            510         dense_2[0][0]                    
____________________________________________________________________________________________________
dense_4 (Dense)                  (None, 1)             11          dense_3[0][0]                    
====================================================================================================
Total params: 348,219
Trainable params: 348,219
Non-trainable params: 0
____________________________________________________________________________________________________
(carnd-term1) carnd@ip-172-31-85-90:~$ 
(carnd-term1) carnd@ip-172-31-85-90:~$ 
(carnd-term1) carnd@ip-172-31-85-90:~$ cp model.h5 model_archive/model_nvda_good_run1.h5
…
